avacl/notebooks/results/Model_mnist_2021_07_20_06_10_23_bc0773d204664c92bca16d42e7e0815f.pt (torch, 361796 bytes, 8 tensors)

tensor f4 [4]
0.0 0.0 2.0 1.0
00000000: 0000 0000 0000 0000 0000 0040 0000 803f

tensor f4 [4, 3]
0.0852 0.0779 0.1049 0.0883 0.0785 0.1039 0.0881 0.0785
0.1032 0.0885 0.0784 0.1036
00000000: 567d ae3d 098a 9f3d d0d5 d63d a1d6 b43d
00000010: 9cc4 a03d 86c9 d43d c66d b43d 9cc4 a03d
00000020: 865a d33d 7d3f b53d 2e90 a03d 3d2c d43d

net.net.0.weight f4 [100, 784]
-0.063311316 0.048908573 -0.07679696 0.019933091 -0.015156771 -0.060293343 -0.028643845 0.04927369
0.052349642 0.06449343 0.05609263 -0.0806155 0.024652144 -0.033054825 0.05435455 0.030548131
0.06115335 0.05092779 0.013221365 -0.07044253 -0.04655525 -0.019446908 -0.012229796 0.039726675
0.036886487 0.021021176 -0.029945528 -0.08183899 -0.021998227 -0.0012378896 0.0688602 0.050017234
0.01192186 -0.020048762 0.034565713 0.05168446 -0.04708596 0.012380974 0.070113584 0.060485695
0.04358318 -0.038614906 -0.06791349 0.043038934 0.02725815 -0.03094663 -0.031282913 -0.02592362
0.003100137 0.0047770543 -0.023869542 -0.079048224 -0.05800985 -0.027613556 0.07193626 -0.0574379
0.044450153 -0.05812353 0.07686282 0.049051102 -0.03238003 0.02077515 -0.048507728 -0.022625092
0.051989507 0.060519055 0.042880364 -0.002988459 -0.04533045 0.0023991705 0.033077355 0.02215314
-0.079306476 -0.04535128 0.06874441 0.059345745 0.05463575 -0.026589401 0.0666293 0.070531115
0.052859925 0.001782387 0.036655553 0.013161742 -0.07113218 0.06810121 0.018160246 -0.040552232
-0.044343676 0.028039666 0.03978381 0.052725565 -0.018301843 0.0074198106 -0.013187365 -0.06894389
0.041695155 0.07168394 -0.012866283 -0.014133812 -0.032639634 0.0061862543 -0.034881886 -0.040965885
-0.072357394 0.011845185 -0.026800312 0.0027908825 -0.04071597 -0.042161256 -0.011313627 0.014851324
0.039777756 -0.024080837 -0.046396486 -0.054062124 -0.0023962916 -0.034023806 0.04509778 -0.02647084
0.00887077 -0.07113033 0.05823318 -0.059952106 0.061426383 -0.06618234 0.082189836 0.029097399
0.07238045 0.010292805 -0.03039259 -0.07754047 0.07657865 0.035379756 -0.065076016 -0.025995223
-0.035990354 -0.05638121 -0.07363767 -0.03350504 -0.07745302 0.0040817526 -0.07512756 0.057367243
-0.050563134 -0.04974914 -0.039086904 0.00581247 0.077427864 0.07637908 0.009621182 -0.035616063
0.023665296 -0.06747691 0.08215056 -0.002433159 -0.06309756 -0.019603433 -0.001560094 0.0068938048
-0.024536317 0.07677528 0.07164807 -0.077756986 -0.0013153392 0.05048116 0.011705838 -0.030805824
-0.051797263 0.060742136 -0.0029746045 -0.015025401 0.028209142 -0.06948044 -0.031719454 -0.0070656184
0.020626757 0.06094413 0.0808909 0.041765194 -0.061788097 0.047423664 -0.05911443 0.061328806
0.0053096786 -0.07817613 0.0117639 0.062112283 0.038545802 -0.07943496 -0.043482933 0.023095513
-0.00064775196 -0.032706123 0.0664658 6.0359976e-05 0.0024589153 -0.07671349 0.025752693 -0.031155545
-0.048671607 0.07783094 -0.021674464 0.044019625 0.0139325475 0.02944702 0.06673811 0.02441155
-0.028918713 -0.0002569326 0.011047005 0.000113232425 -0.02950018 0.050725985 -0.0068930406 0.03509775
-0.05953772 -0.03622971 0.0074174143 0.030457012 0.039005555 -0.0011951166 0.06007858 -0.054116134
0.07250151 0.03759299 -0.01677564 0.0049012997 0.052087557 -0.016589988 -0.008438976 0.053888157
-0.064486735 -0.06835125 0.04011159 0.0068688714 -0.06872419 -0.040072862 -0.034254983 0.04413268
0.07143991 0.02507713 0.018433018 0.0046514426 -0.046349604 -0.055697266 0.00025431326 -0.0069861677
-0.028043116 0.07430721 -0.028306482 -0.04819247 0.051290262 -0.0046213805 -0.022152683 -0.048547212
00000000: 5da9 81bd 5b54 483d b947 9dbd b94a a33c
00000010: 1b54 78bc 27f6 76bd 7fa6 eabc 35d3 493d
00000020: 946c 563d 2215 843d 63c1 653d bd19 a5bd
00000030: 4bf3 c93c 7f64 07bd e0a2 5e3d 1340 fa3c
00000040: ef7b 7a3d a999 503d 6d9e 583c 2c44 90bd
00000050: b8b0 3ebd 1f4f 9fbc 7b5f 48bc 70b8 223d
00000060: 4916 173d 9a34 ac3c 5350 f5bc 339b a7bd
00000070: a035 b4bc af40 a2ba 9406 8d3d dfde 4c3d
00000080: e853 433c 4d3d a4bc c794 0d3d 16b3 533d
00000090: 35dd 40bd 92d9 4a3c b697 8f3d d9bf 773d
000000a0: 4784 323d aa2a 1ebd 3a16 8bbd 9849 303d
000000b0: 7c4c df3c c983 fdbc 8322 00bd c65d d4bc
000000c0: ab2b 4b3b d688 9c3b 0f8a c3bc 09e4 a1bd
000000d0: bd9b 6dbd d335 e2bc 5153 933d 0144 6bbd
000000e0: 5d11 363d f012 6ebd 416a 9d3d cfe9 483d
000000f0: eca0 04bd a630 aa3c 0ab0 46bd 4258 b9bc
00000100: f3f2 543d d4e2 773d 52a3 2f3d 06da 43bb
00000110: 6cac 39bd 673b 1d3b 1f7c 073d 807a b53c
00000120: 6f6b a2bd 44c2 39bd dfc9 8c3d 8614 733d
00000130: bcc9 5f3d 04d2 d9bc f174 883d 9e72 903d
00000140: a683 583d fc9e e93a 2224 163d 59a4 573c
00000150: c0ad 91bd a678 8b3d ccc4 943c 191a 26bd
00000160: b7a1 35bd 71b3 e53c 59f4 223d c3f6 573d
00000170: bfed 95bc e221 f33b d10f 58bc 7432 8dbd
00000180: 8ac8 2a3d 08cf 923d 1acd 52bc 8191 67bc
00000190: 23b1 05bd 10b6 ca3b 4fe0 0ebd d8cb 27bd
000001a0: 1d30 94bd 4f12 423c 548c dbbc 3de7 363b
000001b0: cac5 26bd 48b1 2cbd ca5c 39bc f852 733c
000001c0: 00ee 223d 2d45 c5bc 3e0a 3ebd 3f70 5dbd
000001d0: 1a0b 1dbb 8c5c 0bbd 73b8 383d 60d9 d8bc
000001e0: b556 113c c7ac 91bd ea85 6e3d 5790 75bd
000001f0: 3b9a 7b3d 9b8a 87bd 2553 a83d ab5d ee3c
00000200: 343c 943d 27a3 283c e2f9 f8bc 8acd 9ebd
00000210: 44d5 9c3d 5dea 103d 9346 85bd eff3 d4bc
00000220: 9f6a 13bd fcef 66bd 59cf 96bd 953c 09bd
00000230: b09f 9ebd 39c0 853b 7adc 99bd eaf9 6a3d
00000240: 4a1b 4fbd c1c5 4bbd 9719 20bd 8876 be3b
00000250: 8092 9e3d a36c 9c3d 2aa2 1d3c 26e2 11bd
00000260: b9dd c13c 5631 8abd 8e3e a83d a275 1fbb
00000270: 4b39 81bd 6197 a0bc 117c ccba 6de5 e13b
00000280: 6300 c9bc 5c3c 9d3d 39bc 923d 0e3f 9fbd
00000290: 7667 acba 55c5 4e3d d8c9 3f3c 7f5c fcbc
000002a0: 5e29 54bd bfcc 783d 95f1 42bb 192d 76bc
000002b0: dc16 e73c c34b 8ebd 42ec 01bd b486 e7bb
000002c0: 72f9 a83c 8da0 793d 21aa a53d fb11 2b3d
000002d0: 8415 7dbd 513f 423d f921 72bd ea33 7b3d
000002e0: d0fc ad3b cf1a a0bd 5fbd 403c 7369 7e3d
000002f0: 34e2 1d3d ccae a2bd 291b 32bd cd32 bd3c
00000300: e6cd 29ba dbf6 05bd 391f 883d 082b 7d38
00000310: c125 213b f61b 9dbd 50f7 d23c ea39 ffbc
00000320: e15b 47bd d465 9f3d a58e b1bc ec4d 343d
00000330: 5745 643c e03a f13c fdad 883d bbfa c73c
00000340: f0e6 ecbc e9b4 86b9 7ffe 343c 3277 ed38
00000350: 5daa f1bc 0dc6 4f3d 04df e1bb a9c2 0f3d
00000360: d3dd 73bd 9b65 14bd c80d f33b fc80 f93c
00000370: 4ac4 1f3d 75a5 9cba f514 763d e1a8 5dbd
00000380: ac7b 943d 1bfb 193d 116d 89bc 159b a03b
00000390: c359 553d bae7 87bc a143 0abc d4b9 5c3d
000003a0: 9f11 84bd bdfb 8bbd 0d4c 243d 4514 e13b
000003b0: 45bf 8cbd 7123 24bd f44e 0cbd 78c4 343d
000003c0: 164f 923d 8e6e cd3c d700 973c 216b 983b
000003d0: 15d9 3dbd d122 64bd 5955 8539 39ec e4bb
000003e0: adba e5bc 612e 983d ffe2 e7bc 7865 45bd
000003f0: bd15 523d f36e 97bb 8b79 b5bc 71d9 46bd

net.net.0.bias f4 [100]
-0.00038997075 8.70914e-05 3.8347043e-05 -0.00017103553 -0.0002454142 -0.00015990788 5.4737644e-05 -7.0350885e-05
0.00021718642 0.0001028492 0.00017159403 -0.00025676505 -0.00028201158 -0.00046060528 -2.7334658e-05 9.03871e-05
0.00015163873 0.00015006225 -0.00023862057 -0.00017913338 7.707917e-06 4.730165e-05 0.00014171147 -0.00022780661
-0.00067750446 -0.00010412507 -6.373151e-05 -1.9428835e-05 -0.00014727422 -2.2668832e-05 -0.00026263652 9.650863e-05
-0.00016104376 2.6592192e-05 -0.00034045655 -0.0001784061 -7.641505e-06 -0.00013857575 -6.606557e-05 9.529826e-05
-3.1225016e-05 0.00024896482 -0.00029592653 0.0001169536 4.3545333e-05 0.00010789493 -0.00032903755 0.00017666873
1.0821328e-05 7.857219e-05 -0.00018617485 -0.0003087155 -6.474816e-05 0.00012613506 7.9300764e-05 0.00016699613
-0.00011918499 6.885159e-05 0.00016140465 0.0004113957 8.3851264e-05 -1.931269e-05 -5.677205e-05 0.00020195797
-0.00042026743 0.00026171902 -1.7567394e-05 2.8719316e-05 -5.3529115e-05 -0.00016127316 -7.626415e-05 -0.0002883775
-1.9957104e-05 -0.00027561365 6.295405e-05 0.0002725979 -7.699295e-05 1.1173513e-05 6.14931e-05 1.955996e-05
8.252804e-05 -0.00010160291 -0.00031105967 -0.000202461 8.864749e-05 0.00015500165 4.8794453e-05 0.00018160221
-0.00016784588 -7.467543e-05 1.9352578e-06 -0.00022850552 -3.074142e-05 0.00012186086 -0.00010086502 -8.4518935e-05
2.5983758e-05 -5.9604776e-05 4.722202e-05 -0.00026918127
00000000: fd74 ccb9 d7a4 b638 d3d6 2038 0058 33b9
00000010: f0aa 80b9 f2ac 27b9 1996 6538 5889 93b8
00000020: 89bc 6339 beb0 d738 eced 3339 6c9e 86b9
00000030: f4da 93b9 657d f1b9 bb4c e5b7 348e bd38
00000040: 3601 1f39 075a 1d39 3936 7ab9 c0d5 3bb9
00000050: 4051 0137 c365 4638 6298 1439 5fdf 6eb9
00000060: 8e9a 31ba b95d dab8 98a7 85b8 1bfb a2b7
00000070: 9f6d 1ab9 f228 beb7 7ab2 89b9 ad64 ca38
00000080: dbdd 28b9 4c12 df37 4e7f b2b9 8612 3bb9
00000090: 0434 00b7 a54e 11b9 af8c 8ab8 ddda c738
000000a0: 9bf7 02b8 7e87 8239 9626 9bb9 fc44 f538
000000b0: 72a4 3638 a645 e238 ac82 acb9 2740 3939
000000c0: 408d 3537 20c7 a438 ee37 43b9 18db a1b9
000000d0: 67c9 87b8 1f43 0439 464e a638 af1b 2f39
000000e0: f4f2 f9b8 6a64 9038 bb3e 2939 99b0 d739
000000f0: 4ed9 af38 b001 a2b7 861e 6eb8 aec4 5339
00000100: 5757 dcb9 5537 8939 b15d 93b7 43ea f037
00000110: 7384 60b8 6f1b 29b9 01f0 9fb8 5f31 97b9
00000120: 8e69 a7b7 3d80 90b9 3306 8438 79eb 8e39
00000130: 4677 a1b8 df75 3b37 dbf5 8038 b214 a437
00000140: e712 ad38 a613 d5b8 b915 a3b9 b64b 54b9
00000150: 42e8 b938 f087 2239 a5a8 4c38 796c 3e39
00000160: c9ff 2fb9 119b 9cb8 7adf 0136 fc9a 6fb9
00000170: 59f0 00b8 8d8f ff38 7f87 d3b8 c23f b1b8
00000180: b2f7 d937 2400 7ab8 4210 4638 e620 8db9

net.net.2.weight f4 [100, 100]
0.11431101 0.04730143 -0.08688694 -0.0011504955 0.08861056 0.0051539117 0.064891845 0.0012805413
-0.10917671 0.12737648 -0.09680327 -0.14049454 0.00014677933 -0.16154316 -0.0144241275 -0.08388785
0.033335682 -0.11177526 0.16688615 -0.11859397 0.09508122 0.09099353 -0.16890758 -0.103319325
0.0129062245 0.10269909 -0.14588334 0.05548665 0.075212166 0.06491991 -0.08273765 0.1284425
0.1047943 0.033864506 0.09683681 -0.026920386 0.030798486 0.0861252 -0.120060526 -0.094608
0.14557026 0.008464812 -0.085150585 0.15477899 -0.15583687 0.1619576 -0.083974525 0.0020429068
-0.012760345 -0.06879358 0.07728459 0.14614081 0.16841607 -0.07970316 0.14731723 -0.043230094
0.10752119 0.007997908 0.16261789 -0.08678866 0.026490845 -0.10399508 0.13593271 0.110170126
0.13631317 0.096745856 0.027173828 0.0013037227 -0.08226116 -0.13793987 -0.106647454 -0.004880894
-0.13217384 0.15395622 0.15940674 -0.049822703 -0.055819113 0.003535792 -0.05418226 0.005939987
0.14472315 -0.052426748 -0.082999006 -0.009970168 0.11195766 0.120575614 0.10339907 0.0112985615
-0.042070698 0.12241392 -0.12180984 -0.15699422 0.1134595 0.110465206 -0.05980833 -0.09304594
0.027822653 -0.10585101 0.08922444 -0.10188171 0.14697288 0.11826911 -0.040881887 0.021891885
-0.10416959 0.14985205 0.0890944 0.10009627 -0.1003958 -0.14311229 0.062887244 0.12939261
-0.040083937 0.044897307 -0.026179038 -0.109634444 -0.06137209 -0.029188657 -0.06961159 0.08215142
0.14387454 0.1689438 0.04593889 -0.12404058 -0.06069744 0.16963445 -0.081215136 0.13164331
0.02383761 -0.12781864 0.017797114 -0.13810578 -0.052595746 0.0403203 0.017786434 -0.030461185
0.13279356 -0.16679637 0.14787336 -0.012969257 -0.018164815 0.06222066 -0.06381449 0.09025964
0.056532584 0.072683424 -0.00814069 -0.077488065 -0.10344197 0.17180254 -0.04107655 -0.07069985
-0.011478802 0.09049155 0.0011904329 0.1713276 0.08502668 -0.10136984 0.13419265 -0.100035064
0.0033343157 0.10956242 -0.15509352 -0.0015359905 0.04540332 0.12873171 -0.018805552 0.15152991
-0.04874775 0.14034171 0.10267703 0.053236295 0.036079824 -0.13255902 0.097385444 0.12600568
0.14069977 -0.15671289 -0.13518244 -0.13325363 0.051190414 0.112176485 -0.11949413 -0.08065317
-0.062634915 -0.05532787 -0.15515384 0.14911185 0.037587166 -0.15837866 -0.10853982 -0.15853934
0.11511821 -0.028217338 0.08507346 -0.04522632 -0.021165047 0.042280927 -0.081627086 -0.0415302
0.09571505 -0.1685762 0.06817508 0.14358574 -0.073727086 0.059585847 -0.11169288 -0.12627386
-0.10360896 0.023256535 -0.037020706 0.05343116 0.13964789 0.00037112786 -0.008729028 -0.013250112
0.121828824 0.10409219 0.11746359 0.046252456 0.10725195 -0.13685694 0.07477573 -0.05687456
0.01084311 -0.08043853 -0.06830393 0.13066804 -0.057883836 -0.160013 0.11265457 -0.03278523
-0.08695851 -0.1120492 0.09352467 0.031043557 0.10299189 -0.13609873 -0.1729482 -0.15694657
0.14920785 0.09460432 0.04033379 -0.11932279 -0.0734075 0.023253186 -0.022922268 -0.123312816
0.092781976 -0.12820241 0.16468999 0.1402864 0.15220234 0.0011640209 0.10624393 -0.08291242
00000000: e41b ea3d 25bf 413d c8f1 b1bd 39cc 96ba
00000010: 7479 b53d 25e2 a83b 04e6 843d d6d7 a73a
00000020: 0a98 dfbd fb6e 023e cb40 c6bd cddd 0fbe
00000030: c7e8 1939 926b 25be 2d53 6cbc 65cd abbd
00000040: ff8a 083d 6dea e4bd 34e4 2a3e 65e1 f2bd
00000050: f1b9 c23d d15a ba3d 1cf6 2cbe 1599 d3bd
00000060: a174 533c e753 d23d 7162 15be f845 633d
00000070: d608 9a3d bbf4 843d 5b72 a9bd 6e86 033e
00000080: 659e d63d 82b5 0a3d 6152 c63d 2488 dcbc
00000090: 1b4d fc3c 6962 b03d 4be2 f5bd d7c1 c1bd
000000a0: 5f10 153e ffaf 0a3c 6e63 aebd 627e 1e3e
000000b0: b393 1fbe 37d8 253e d6fa abbd 4ae2 053b
000000c0: c410 51bc a6e3 8cbd 6247 9e3d f0a5 153e
000000d0: 4375 2c3e 693b a3bd 54da 163e 0a12 31bd
000000e0: 1234 dc3d a809 033c 4e85 263e 41be b1bd
000000f0: 5403 d93c 5ffb d4bd f231 0b3e e0a0 e13d
00000100: ae95 0b3e b122 c63d a69b de3c ade1 aa3a
00000110: 8a78 a8bd 1c40 0dbe fb69 dabd e8ef 9fbb
00000120: 9458 07be b3a6 1d3e 853b 233e e412 4cbd
00000130: 95a2 64bd bfb8 673b 38ee 5dbd 39a4 c23b
00000140: 4e32 143e 6ebd 56bd 62fb a9bd ea59 23bc
00000150: 0f4a e53d 59f0 f63d e4c2 d33d 9a1d 393c
00000160: 5352 2cbd 26b4 fa3d 7077 f9bd 18c3 20be
00000170: 745d e83d 953b e23d 94f9 74bd df8e bebd
00000180: 55ec e33c 6ac8 d8bd 4ebb b63d 5ca7 d0bd
00000190: 0f80 163e 1337 f23d c473 27bd 9c56 b33c
000001a0: de56 d5bd d172 193e 2077 b63d 46ff cc3d
000001b0: 509c cdbd 078c 12be 07cb 803d 7f7f 043e
000001c0: 0e2f 24bd 3de6 373d 6c75 d6bc 0688 e0bd
000001d0: 4d61 7bbd 0d1d efbc 8590 8ebd 013f a83d
000001e0: d953 133e 9aff 2c3e 6b2a 3c3d fd08 febd
000001f0: e19d 78bd a7b4 2d3e 1f54 a6bd 81cd 063e
00000200: 1747 c33c e4e2 02be 41cb 913c 9a6b 0dbe
00000210: a36e 57bd e626 253d dbb4 913c bc89 f9bc
00000220: 09fb 073e abcc 2abe 1d6c 173e 027d 54bc
00000230: 61ce 94bc 17db 7e3d 2cb1 82bd 0cda b83d
00000240: b68e 673d 0cdb 943d 8760 05bc 10b2 9ebd
00000250: 62d9 d3bd 01ed 2f3e e23f 28bd 15cb 90bd
00000260: 9611 3cbc a253 b93d 4d08 9c3a 8170 2f3e
00000270: 7822 ae3d fe9a cfbd cc69 093e 2fdf ccbd
00000280: 8984 5a3b 4362 e03d d6d0 1ebe 4a53 c9ba
00000290: d5f8 393d 3fd2 033e 1a0e 9abc a82a 1b3e
000002a0: b9ab 47bd bdb5 0f3e 5648 d23d 4d0e 5a3d
000002b0: 70c8 133d 8dbd 07be 0572 c73d a207 013e
000002c0: 9a13 103e 5879 20be 446d 0abe a473 08be
000002d0: 0aad 513d c9bc e53d 57b9 f4bd 7d2d a5bd
000002e0: bc46 80bd 7a9f 62bd a6e0 1ebe c7b0 183e
000002f0: 00f5 193d 042e 22be 204a debd 2358 22be
00000300: 19c3 eb3d 0c28 e7bc ff3a ae3d 3c3f 39bd
00000310: 5262 adbc c42e 2d3d 1a2c a7bd 921b 2abd
00000320: 4106 c43d 3d9f 2cbe 609f 8b3d 2408 133e
00000330: 3afe 96bd 4a10 743d 3dbf e4bd ef4d 01be
00000340: ef30 d4bd 7d84 be3c 06a3 17bd a2da 5a3d
00000350: dbff 0e3e f093 c239 3204 0fbc ff16 59bc
00000360: 6481 f93d 492e d53d c090 f03d 3773 3d3d
00000370: e9a6 db3d 3a24 0cbe 0524 993d 4cf5 68bd
00000380: 4da7 313c f5bc a4bd eee2 8bbd d8cd 053e
00000390: 9a17 6dbd 73da 23be 70b7 e63d ce49 06bd
000003a0: 4e17 b2bd 0d7a e5bd dd89 bf3d 0f4f fe3c
000003b0: 69ed d23d 775d 0bbe 5519 31be 9ab6 20be
000003c0: f1c9 183e e9bf c13d 0b35 253d 825f f4bd
000003d0: ac56 96bd 777d be3c 7bc7 bbbc 6e8b fcbd
000003e0: 7a04 be3d 7e47 03be 7ea4 283e 3da7 0f3e
000003f0: eeda 1b3e 0f92 983a 6b96 d93d fdcd a9bd

net.net.2.bias f4 [100]
0.00017034455 -6.829823e-05 -0.0010606977 -0.00022030306 -0.00016159544 3.1089105e-05 5.3771062e-05 -8.3091814e-05
-2.5822847e-05 0.0001442249 -0.00014124539 0.00059835456 9.061891e-05 -0.0004755178 0.0 -6.6411817e-06
0.00027358616 0.00030840677 -0.000118568954 -7.7994584e-05 0.00017737655 0.00035278802 7.350951e-05 0.00027891973
0.0 -2.8344259e-05 -5.0366078e-05 -1.9469626e-05 0.00014487146 -1.2447168e-05 3.1054045e-05 -0.0001735667
-0.00023254883 -0.00025209755 0.00011014383 -0.001087608 0.0002181131 0.0006408416 -5.3491174e-05 -3.2885706e-05
0.00018806006 -0.0006508848 0.00013593204 -3.420275e-05 0.0003410307 -5.776672e-05 -0.0002287863 -8.9579655e-05
-0.00030630786 3.2828589e-06 -0.0005846827 -5.123091e-05 0.0 -4.731856e-06 0.000115785726 0.00017771963
6.570614e-05 2.9239662e-05 -0.00034803204 0.000102926126 0.00011193111 -0.0002920131 -0.00039772256 1.8963128e-05
-8.056281e-06 -7.98557e-05 -0.00019716828 1.3867222e-05 0.00022196643 0.00041052356 0.00054931315 0.00022521724
-0.0003027147 -0.00016691972 -2.6772595e-05 0.00030020892 -0.00074832106 -0.00017842471 -0.0001480558 0.00012540272
0.0001997334 -0.0003296547 -0.00035977154 0.00016161517 -6.920315e-05 -6.211456e-06 -0.00030631453 0.00044323865
0.00043181473 -0.00072149956 -6.720967e-05 0.000541232 -1.5838592e-05 -0.00029217722 9.825796e-05 8.433258e-05
1.8446899e-05 8.088922e-05 -0.0004530972 -0.0004486331
00000000: 849e 3239 553b 8fb8 1c07 8bba 2701 67b9
00000010: f271 29b9 ac65 0238 3d88 6138 9441 aeb8
00000020: 249e d8b7 143b 1739 451b 14b9 e5da 1c3a
00000030: a80a be38 eb4e f9b9 0000 0000 51d7 deb6
00000040: 1d70 8f39 a8b1 a139 39a8 f8b8 0691 a3b8
00000050: 28fe 3939 68f6 b839 1e29 9a38 f93b 9239
00000060: 0000 0000 d5c4 edb7 2a40 53b8 b452 a3b7
00000070: a3e8 1739 2ed4 50b7 0740 0238 75ff 35b9
00000080: 5ad8 73b9 f62b 84b9 05fd e638 128e 8eba
00000090: 4ab5 6439 27fe 273a b65b 60b8 c2ee 09b8
000000a0: fd31 4539 24a0 2aba fb88 0e39 ec74 0fb8
000000b0: 5ecc b239 8b4a 72b8 5be6 6fb9 b6dc bbb8
000000c0: f297 a0b9 164f 5c36 6445 19ba c5e0 56b8
000000d0: 0000 0000 55c6 9eb6 fdd1 f238 405a 3a39
000000e0: b7cb 8938 b247 f537 1278 b6b9 0bda d738
000000f0: 8fbc ea38 5619 99b9 6b85 d0b9 0213 9f37
00000100: 7729 07b7 3478 a7b8 f5be 4eb9 44a7 6837
00000110: a9bf 6839 8a3b d739 c8ff 0f3a 4b28 6c39
00000120: aeb5 9eb9 2c07 2fb9 b695 e0b7 5c65 9d39
00000130: fa2a 44ba 8517 3bb9 6d3f 1bb9 897e 0339
00000140: 876f 5139 81d5 acb9 b89f bcb9 3e77 2939
00000150: 2921 91b8 006c d0b6 d798 a0b9 7c62 e839
00000160: 3165 e239 0423 3dba ebf2 8cb8 77e1 0d3a
00000170: 1edd 84b7 5d2f 99b9 d70f ce38 b6db b038
00000180: 6abe 9a37 12a3 a938 ad8d edb9 8436 ebb9

net.net.4.weight f4 [10, 100]
-0.12029118 -0.18811075 0.17633665 -0.20014668 0.09228845 0.062460516 -0.14971295 -0.016406456
-0.14951059 0.07965078 0.2118868 -0.18338338 -0.0410495 -0.19863033 0.20658337 -0.208877
0.13705802 -0.07045694 0.04161092 0.22066827 -0.051196974 0.0015467328 -0.09052852 0.058526378
0.010305705 0.108241595 -0.12869038 0.07096115 -0.03540421 -0.05582246 -0.0065355496 -0.08251085
-0.072997466 0.14857018 0.017462047 -0.0058672144 -0.097241394 0.10257976 -0.08293489 -0.14606589
-0.030819431 -0.21517144 0.14143097 0.22680947 0.13292412 0.00064237067 -0.18929331 0.038270943
-0.16155213 -0.12237814 -0.20230842 0.20210373 -0.112934306 -0.06841 -0.042579398 0.016702773
-0.16081531 0.20387039 -0.19557151 -0.13511233 0.010601478 0.01970869 0.054824483 -0.115003414
-0.16094592 -0.17943653 0.020103976 -0.1489627 0.17027782 0.047368627 -0.0781586 0.10603108
-0.16832162 0.010035334 -0.16535042 -0.14047685 -0.09901888 -0.06910345 0.0010194154 0.21744052
-0.095423825 0.18466672 -0.040136933 -0.15091605 -0.011391652 -0.05807736 -0.12185742 0.22567154
0.19391184 -0.030547189 0.06626923 0.193096 0.17786413 -0.15348789 -0.18438596 0.083801895
-0.18894903 -0.110663526 -0.23024902 0.12798283 -0.16120829 -0.12187917 -0.06626563 -0.13497947
0.0838918 0.041217294 0.03937713 0.086638 -0.1263869 -0.12453421 -0.20208721 0.09256679
0.19023283 -0.09615261 0.23342974 0.10259266 0.014490568 0.011030491 -0.059735212 0.19604674
0.090099394 -0.097199365 0.12835103 0.2227291 -0.076946594 0.022228016 -0.029245026 -0.14537282
0.103613704 -0.17442243 0.14240149 -0.163853 0.07039042 0.122427024 -0.23188527 0.14859003
0.05129841 0.13956626 0.18120484 0.13255833 -0.025627686 -0.21934442 -0.20744032 0.07386916
-0.20861591 0.13684537 0.15105093 -0.11399444 0.18015261 -0.1920924 -0.114201434 -0.10691188
0.07471091 0.16643623 -0.10707518 0.07821725 -0.10926547 0.08773246 -0.025694381 -0.09005808
-0.032339793 0.045120753 0.20620058 0.1279815 -0.17519033 -0.07864235 -0.20969716 -0.07281822
0.20878837 0.21008736 -0.04966775 -0.16815126 -0.17310658 -0.03109964 0.06630359 -0.20290509
0.06978744 0.1563688 0.09879095 -0.16760187 -0.19352843 -0.14627922 -0.14029089 -0.05666623
0.012418197 0.0042230426 0.062158294 -0.20823362 0.0057091126 0.19997363 -0.1615455 0.10403619
0.084136605 0.06395883 -0.07761316 0.03445808 -0.05411756 -0.022982031 0.034674436 -0.08847407
-0.22248845 0.17677389 -0.16689442 0.005505918 -0.12751924 -0.019009775 0.032123722 -0.05535001
-0.18828718 0.1502132 -0.20975538 -0.05838715 -0.19667564 0.074693896 -0.16828462 0.05304857
0.082265496 0.059848636 0.12987937 0.22061801 0.10838303 -0.0009734867 -0.022250071 -0.041901745
-0.14436573 -0.16031006 0.06250947 -0.19487065 -0.07996825 0.11186621 0.05210013 0.14999337
-0.21250427 0.027412992 -0.06281433 -0.045838844 0.07218374 0.20292859 -0.10370861 -0.0013239465
0.18970186 -0.17543896 -0.05993752 -0.094970234 -0.08642083 -0.16703875 0.0884261 -0.077871196
0.03871588 -0.0057961075 0.14157458 0.069489315 -0.033512227 0.08937223 0.13313709 -0.016592046
00000000: 395b f6bd 1ba0 40be 9891 343e 40f3 4cbe
00000010: ba01 bd3d 99d6 7f3d 5a4e 19be d566 86bc
00000020: 4e19 19be f31f a33d daf8 583e dac8 3bbe
00000030: 8523 28bd c065 4bbe 978a 533e dae3 55be
00000040: f058 0c3e ba4b 90bd 3670 2a3d ddf6 613e
00000050: ebb3 51bd bebb ca3a 0467 b9bd 5bb9 6f3d
00000060: 42d9 283c c5ad dd3d 69c7 03be 1454 913d
00000070: 0104 11bd 18a6 64bd 2a28 d6bb 73fb a8bd
00000080: b27f 95bd c822 183e 910c 8f3c c341 c0bb
00000090: 7f26 c7bd 5615 d23d c5d9 a9bd 4c92 15be
000000a0: 0879 fcbc e755 5cbe 48d3 103e be40 683e
000000b0: 431d 083e c464 283a 1bd6 41be fec1 1c3d
000000c0: ec6d 25be 64a1 fabd f029 4fbe 48f4 4e3e
000000d0: 1a4a e7bd 8b1a 8cbd bc67 2ebd 41d4 883c
000000e0: c5ac 24be 66c3 503e e643 48be e35a 0abe
000000f0: d2b1 2d3c 1e74 a13c a38f 603d e986 ebbd
00000100: 02cf 24be 36be 37be 18b1 a43c ae89 18be
00000110: 4f5d 2e3e 9b05 423d 9e11 a0bd d326 d93d
00000120: 815c 2cbe 3e6b 243c 9f51 29be 2ad9 0fbe
00000130: 69ca cabd 1c86 8dbd e89d 853a baa8 5e3e
00000140: 916d c3bd 4619 3d3e a066 24bd bd89 1abe
00000150: 0da4 3abc 87e2 6dbd 6290 f9bd 7116 673e
00000160: d390 463e 193e fabc 29b8 873d f5ba 453e
00000170: 0422 363e ee2b 1dbe accf 3cbe 54a0 ab3d
00000180: db7b 41be 8fa3 e2bd 66c6 6bbe ee0d 033e
00000190: c913 25be c99b f9bd 46b6 87bd 0f38 0abe
000001a0: 77cf ab3d 77d3 283d ea49 213d 446f b13d
000001b0: 916b 01be cb0b ffbd f3ef 4ebe a893 bd3d
000001c0: 65cc 423e a9eb c4bd 3508 6f3e 1a1c d23d
000001d0: d969 6d3c 3cb9 343c e9ac 74bd 7ac0 483e
000001e0: 0886 b83d 7610 c7bd 746e 033e 1913 643e
000001f0: 2d96 9dbd 8717 b63c 4493 efbc 9ddc 14be
00000200: 6c33 d43d cb9b 32be b2d1 113e 15c9 27be
00000210: da28 903d 05bb fa3d 5573 6dbe fc27 183e
00000220: 481e 523d 75ea 0e3e c38d 393e 5fbd 073e
00000230: 27f1 d1bc d39b 60be 3c6b 54be b748 973d
00000240: 699f 55be 3121 0c3e 18ad 1a3e eb75 e9bd
00000250: ed79 383e dfb3 44be 71e2 e9bd 9ef4 dabd
00000260: 0902 993d 426e 2a3e 3b4a dbbd 5e30 a03d
00000270: 93c6 dfbd 13ad b33d 067d d2bc 5f70 b8bd
00000280: bb76 04bd 8ad0 383d 3f26 533e 950d 033e
00000290: 1865 33be 3e0f a1bd daba 56be b821 95bd
000002a0: 9ecc 553e 2421 573e 6970 4bbd d82f 2cbe
000002b0: da42 31be acc4 febc 2dca 873d 5ac6 4fbe
000002c0: b8ec 8e3d 251f 203e e952 ca3d d39f 2bbe
000002d0: 512c 46be 38ca 15be 6aa8 0fbe d91a 68bd
000002e0: b175 4b3c 7361 8a3b b299 7e3d 323b 55be
000002f0: 8213 bb3b e3c5 4c3e 2f6c 25be ed10 d53d
00000300: d04f ac3d d9fc 823d a6f3 9ebd ea23 0d3d
00000310: 60aa 5dbd d044 bcbc c806 0e3d e531 b5bd
00000320: 03d4 63be 3704 353e 5fe6 2abe fd6a b43b
00000330: 6794 02be 63ba 9bbc 2a94 033d b1b6 62bd
00000340: 5bce 40be 7dd1 193e 1dca 56be 5d27 6fbd
00000350: 5765 49be 1df9 983d ce52 2cbe 7549 593d
00000360: d07a a83d d823 753d 19ff 043e b0e9 613e
00000370: ecf7 dd3d 9631 7fba c845 b6bc 2aa1 2bbd
00000380: 9cd4 13be 5228 24be f704 803d 2c8c 47be
00000390: 65c6 a3bd 1d1a e53d f266 553d dd97 193e
000003a0: b89a 59be 3691 e03c cda4 80bd 83c1 3bbd
000003b0: 12d5 933d 83cc 4f3e 2e65 d4bd 4688 adba
000003c0: 3441 423e 45a6 33be 0c81 75bd c17f c2bd
000003d0: 67fd b0bd 350c 2bbe be18 b53d ef7a 9fbd
000003e0: 8b94 1e3d 46ed bdbb edf8 103e 6a50 8e3d
000003f0: 1e44 09bd ca08 b73d 1755 083e 0bec 87bc

net.net.4.bias f4 [10]
0.00085134665 -1.7034703e-05 0.00047442605 0.0006673644 0.002827937 -0.0009304396 -0.0009787773 -0.0013160617
-0.0007159248 -0.00086283573
00000000: e82c 5f3a bfe5 8eb7 63bc f839 11f2 2e3a
00000010: e954 393b bfe8 73ba 514a 80ba b47f acba
00000020: e6ac 3bba ed2f 62ba
