avacl/notebooks/results/Model_mnist_2021_07_20_06_08_37_79bb2c1416234b9ca421d38a4d8fd923.pt (torch, 361796 bytes, 8 tensors)

tensor f4 [4]
00000000: 0000 0000 0000 0000 0000 0040 0000 803f
0.0 0.0 2.0 1.0

tensor f4 [4, 3]
00000000: 567d ae3d 098a 9f3d d0d5 d63d c520 b03d
00000010: 9cc4 a03d 8638 d63d a089 b03d 5227 a03d
00000020: abcf d53d a089 b03d 52b8 9e3d 8638 d63d
0.0852 0.0779 0.1049 0.086 0.0785 0.1046 0.0862 0.0782
0.1044 0.0862 0.0775 0.1046

net.net.0.weight f4 [100, 784]
00000000: 5da9 81bd b5c2 483d 8639 9dbd 46ba a23c
00000010: 7012 77bc 55f4 76bd 9c97 eabc 6bb1 493d
00000020: 398c 563d 2215 843d 01d4 653d 6d10 a5bd
00000030: c286 ca3c 2dc5 07bd 48ed 5e3d f8ae fa3c
00000040: 477c 7a3d 5394 503d 92f5 5a3c 4f1f 90bd
00000050: f1a1 3ebd 201e 9fbc 16ff 48bc 3055 223d
00000060: f5fa 163d 2034 ac3c 5aa1 f5bc 339b a7bd
00000070: 40f7 b3bc 11ce 94ba 7edd 8c3d 302b 4d3d
00000080: 16a0 433c 6fe2 a2bc 4620 0e3d 7db4 533d
00000090: 35dd 40bd 92d9 4a3c 128a 8f3d d9bf 773d
000000a0: 7a05 333d c2e8 1dbd d1dd 8abd 2f60 303d
000000b0: 8bc3 df3c 7d92 fdbc 7e0e 00bd fd35 d4bc
000000c0: e4c7 493b c04f 9c3b 00d0 c2bc e1ba a1bd
000000d0: 5e4d 6dbd 0116 e2bc 9058 933d 0d22 6bbd
000000e0: ce81 363d f7e5 6dbd 1687 9d3d 4b62 493d
000000f0: 2b52 04bd 4757 aa3c 5aaa 46bd 16fd b8bc
00000100: 1c68 553d 0fed 773d 6186 2f3d 5018 41bb
00000110: 6cac 39bd ac1d 1f3b 1f7c 073d 9dfc b53c
00000120: 3047 a2bd 1474 39bd dfc9 8c3d 4149 733d
00000130: bdd7 5f3d c7a4 d9bc 8569 883d 9367 903d
00000140: 00bd 583d 6d83 f43a f9d6 163d 2550 593c
00000150: fcbb 91bd 5476 8b3d ed77 953c 742c 26bd
00000160: 8962 35bd ad33 e63c 8572 233d 70f7 573d
00000170: bfed 95bc 18aa f63b d3d5 56bc 0a1d 8dbd
00000180: 8ac8 2a3d a316 933d 1acd 52bc b5d9 67bc
00000190: 8f9e 05bd 10b6 ca3b a071 0ebd 5fcc 27bd
000001a0: 280b 94bd da1c 413c 04b5 dabc 059a 363b
000001b0: cac5 26bd 6166 2cbd 19d8 38bc b8d5 763c
000001c0: 534b 223d 2d45 c5bc dbf9 3dbd ed31 5dbd
000001d0: d0a0 0bbb c93b 0bbd dec1 383d b518 d9bc
000001e0: b556 113c 4266 91bd ea85 6e3d ae18 75bd
000001f0: 83be 7b3d 9b8a 87bd 145f a83d ab5d ee3c
00000200: 343c 943d 27a3 283c 5cec f8bc 8acd 9ebd
00000210: 43d6 9c3d d31e 113d 1540 85bd be21 d5bc
00000220: 4d90 13bd 03af 66bd ecc1 96bd f92a 09bd
00000230: c9bb 9ebd 16cb 883b e4bf 99bd 572e 6b3d
00000240: 4a1b 4fbd 6f5c 4bbd aa28 20bd f529 bd3b
00000250: 65cf 9e3d 0446 9c3d bbfb 1d3c 9149 12bd
00000260: b9dd c13c 5631 8abd a665 a83d abd7 19bb
00000270: db1b 81bd f832 a0bc 86a3 d2ba 6de5 e13b
00000280: dbfe c8bc 7e44 9d3d 39bc 923d 9a84 9fbd
00000290: 7a2b a0ba 55c5 4e3d a876 3f3c 3a55 fcbc
000002a0: 2edb 53bd 3ae2 783d 2165 47bb 57da 75bc
000002b0: 5fa4 e63c 1277 8ebd 42ec 01bd 65c4 e9bb
000002c0: d66b a93c 7ac6 793d b2cd a53d 75e8 2a3d
000002d0: 4e3e 7dbd 75fe 413d 1904 72bd ea33 7b3d
000002e0: b7e4 b03b 4b03 a0bd 6135 413c db8c 7e3d
000002f0: 7299 1e3d ccae a2bd e4f7 31bd 1065 bd3c
00000300: c701 3aba 5205 06bd 0a23 883d 15ed 0839
00000310: 5060 253b c54d 9dbd 042d d33c ea39 ffbc
00000320: 009f 47bd 536a 9f3d ba5c b2bc da5d 343d
00000330: dbc4 643c 0ff8 f13c b410 893d 9815 c83c
00000340: f0e6 ecbc 1758 9eb9 dfdd 353c 76ba 8738
00000350: 5daa f1bc de2a 503d 1627 e1bb 5f7a 0f3d
00000360: f9c2 73bd 8a70 14bd 1620 f23b 7dc6 f93c
00000370: 0445 203d e0be 99ba fb11 763d 2fac 5dbd
00000380: 3e6e 943d d8e0 193d 9f5a 89bc 5bc9 9f3b
00000390: 7b31 553d c231 88bc 93fa 09bc a675 5c3d
000003a0: 93f4 83bd bdfb 8bbd 1de1 243d 3ba1 df3b
000003b0: 45bf 8cbd c9c3 23bd 2430 0cbd 01f4 343d
000003c0: c561 923d 42a4 cd3c 6139 973c 0bac 993b
000003d0: 85aa 3dbd 7c41 64bd a15f ba39 480a e1bb
000003e0: adba e5bc 0b66 983d eec5 e7bc 7865 45bd
000003f0: 7056 523d fb02 97bb 8f1f b5bc 6173 46bd
-0.063311316 0.049013812 -0.07676987 0.019864213 -0.015080079 -0.060291607 -0.028636746 0.049241465
0.05237982 0.06449343 0.056110386 -0.080597736 0.02472246 -0.033147026 0.054425508 0.03060101
0.061153676 0.050922703 0.013364213 -0.07037222 -0.046541158 -0.019423544 -0.0122678485 0.039632022
0.036860425 0.021020949 -0.029984165 -0.08183899 -0.021968484 -0.0011352916 0.06878184 0.050090015
0.011940023 -0.019883363 0.034698747 0.0516858 -0.04708596 0.012380974 0.07008757 0.060485695
0.043706395 -0.038552053 -0.06780589 0.043060478 0.027314922 -0.03095364 -0.03126382 -0.02590465
0.003078931 0.004770249 -0.023780823 -0.078969724 -0.05793511 -0.027598383 0.07194626 -0.05740552
0.044557385 -0.05808064 0.07691781 0.049166005 -0.032304924 0.02079357 -0.048502304 -0.022581618
0.05210124 0.06052881 0.042852763 -0.0029463954 -0.04533045 0.002427916 0.033077355 0.022215182
-0.07923734 -0.045276716 0.06874441 0.059396032 0.054649103 -0.02656783 0.06660751 0.07051005
0.05291462 0.0018654891 0.036826108 0.013263737 -0.07115933 0.06809679 0.018245662 -0.040569738
-0.044283424 0.028100813 0.039904136 0.05272621 -0.018301843 0.007527601 -0.013112503 -0.068903044
0.041695155 0.07182052 -0.012866283 -0.0141510265 -0.032621916 0.0061862543 -0.03477633 -0.040966388
-0.072286904 0.011786664 -0.026697643 0.00278628 -0.04071597 -0.042089824 -0.01128199 0.015065603
0.039622616 -0.024080837 -0.04638086 -0.05400269 -0.0021305569 -0.033992562 0.04510676 -0.026501039
0.00887077 -0.07099582 0.05823318 -0.05983799 0.061460983 -0.06618234 0.0822126 0.029097399
0.07238045 0.010292805 -0.030386142 -0.07754047 0.07658055 0.035429787 -0.06506363 -0.026017066
-0.036026288 -0.056319248 -0.073612064 -0.033488248 -0.07750661 0.0041746004 -0.07507303 0.05741724
-0.050563134 -0.0496487 -0.03910128 0.005772824 0.07754401 0.07630542 0.009642537 -0.03571469
0.023665296 -0.06747691 0.08222513 -0.0023474495 -0.06304141 -0.019555554 -0.0016070462 0.0068938048
-0.024535587 0.076790795 0.07164807 -0.077889636 -0.0012219988 0.05048116 0.011686005 -0.030802358
-0.051722698 0.06076262 -0.0030425268 -0.01500567 0.02815455 -0.069563046 -0.031719454 -0.0071340078
0.020681303 0.060980298 0.08095874 0.041725595 -0.061826997 0.04736181 -0.05908594 0.061328806
0.0053983587 -0.07813128 0.011792512 0.06214605 0.038720556 -0.07943496 -0.043449298 0.02311948
-0.0007095602 -0.032719918 0.06647308 0.0001305829 0.0025234409 -0.07680849 0.025778301 -0.031155545
-0.04873562 0.077839516 -0.021772731 0.044034816 0.01396295 0.029537229 0.06692639 0.02442436
-0.028918713 -0.0003020174 0.0111002615 6.472033e-05 -0.02950018 0.05082213 -0.0068711145 0.03502881
-0.059512112 -0.036240138 0.007389079 0.030490154 0.03912832 -0.0011729859 0.06007574 -0.054119285
0.072475895 0.037567943 -0.016766844 0.0048762984 0.05204914 -0.016625289 -0.008421558 0.053823136
-0.06443133 -0.06835125 0.040253747 0.00682464 -0.06872419 -0.039981637 -0.034225598 0.044178013
0.07147554 0.025102738 0.018459978 0.0046896986 -0.0463052 -0.055726513 0.00035547934 -0.0068676807
-0.028043116 0.07441338 -0.028292622 -0.04819247 0.051351964 -0.0046085096 -0.022109775 -0.048449878

net.net.0.bias f4 [100]
00000000: b57c a7b8 eb72 9137 8611 e936 4e18 11b8
00000010: 01d8 4bb8 e4a2 03b8 8044 3637 2c9f a6b7
00000020: 3589 2c38 e472 a937 3bda 0a38 d636 53b8
00000030: 8e20 70b8 a6e6 d6b8 caee b7b6 c254 7e37
00000040: 0bf9 0738 8cf8 0338 a913 43b8 1d75 1eb8
00000050: 29f9 e8b5 039d 3437 8562 e937 0fa2 44b8
00000060: e08d 0fb9 37f3 a2b7 c4ad 46b7 b2e6 71b6
00000070: 5825 fcb7 1b98 a3b6 aa64 19b8 c2fa b037
00000080: 37b7 ffb7 c543 c736 a122 95b8 72cc 0fb8
00000090: 2b97 43b6 7920 d6b7 4ea0 6bb7 3aee 9237
000000a0: 9603 02b7 fcab 5c38 e00e 75b8 4a70 c037
000000b0: 674d eb36 85f9 ad37 a239 88b8 a5ea 2338
000000c0: 023f 7036 44b2 7f37 6de0 2eb8 3532 83b8
000000d0: 4669 32b7 88d4 c037 6c4f 8237 de10 0838
000000e0: 2578 beb7 1ce8 6e37 0fc1 0638 51ca a938
000000f0: 5c5b 8e37 f80f 01b5 09a4 2eb7 c6e8 2238
00000100: 00ff b2b8 2471 5b38 b15c 5fb6 70e0 e736
00000110: fb2f 2fb7 1d64 03b8 a301 2db7 ac1c 6db8
00000120: 8e3c c3b6 f060 61b8 8708 3f37 054f 6938
00000130: 4384 84b7 0932 1f36 5cf9 6837 a6ec a036
00000140: 13b3 7837 fed3 aab7 5da4 88b8 feb8 33b8
00000150: ac70 9637 7b94 f437 3ad1 3737 5062 1c38
00000160: 3853 1ab8 cdf8 5eb7 9492 f734 ad93 4eb8
00000170: 4c85 ecb6 0799 d537 86be adb7 05b3 95b7
00000180: 6ee5 cb36 809c 54b7 249c 2637 8d63 60b8
-7.986409e-05 1.733886e-05 6.945981e-06 -3.459333e-05 -4.860014e-05 -3.1384538e-05 1.0863994e-05 -1.9862862e-05
4.113578e-05 2.019987e-05 3.3105007e-05 -5.035739e-05 -5.7250778e-05 -0.00010247277 -5.4816237e-06 1.5159314e-05
3.2418448e-05 3.146431e-05 -4.6509933e-05 -3.7779206e-05 -1.7357862e-06 1.0765393e-05 2.7821641e-05 -4.688097e-05
-0.00013690395 -1.942516e-05 -1.1842178e-05 -3.604608e-06 -3.005813e-05 -4.875486e-06 -3.6571793e-05 2.1097603e-05
-3.0483685e-05 5.9385516e-06 -7.111324e-05 -3.428426e-05 -2.9145256e-06 -2.552591e-05 -1.4044415e-05 1.751549e-05
-7.749439e-06 5.261226e-05 -5.8426405e-05 2.2940472e-05 7.0125566e-06 2.0739399e-05 -6.49572e-05 3.9080758e-05
3.5799462e-06 1.524069e-05 -4.1693846e-05 -6.2559186e-05 -1.0634138e-05 2.2987151e-05 1.5534191e-05 3.2440636e-05
-2.2705712e-05 1.4239948e-05 3.212789e-05 8.096232e-05 1.6970262e-05 -4.807948e-07 -1.0409401e-05 3.8840597e-05
-8.535199e-05 5.231904e-05 -3.3283543e-06 6.9104644e-06 -1.0441984e-05 -3.132607e-05 -1.0311985e-05 -5.6531906e-05
-5.8185024e-06 -5.373446e-05 1.1386473e-05 5.562512e-05 -1.5797215e-05 2.372197e-06 1.3886336e-05 4.795921e-06
1.4823646e-05 -2.0364296e-05 -6.5156004e-05 -4.2849213e-05 1.793386e-05 2.9156208e-05 1.0956364e-05 3.728486e-05
-3.6793965e-05 -1.329016e-05 4.6113985e-07 -4.925176e-05 -7.048866e-06 2.5462838e-05 -2.0711926e-05 -1.7845547e-05
6.0765806e-06 -1.2672623e-05 9.930725e-06 -5.3498476e-05

net.net.2.weight f4 [100, 100]
00000000: 8203 ea3d 34b3 413d 5aec b1bd 3d92 87ba
00000010: e149 b53d 27a0 a73b 4c0c 853d b678 a63a
00000020: b0a4 dfbd 9e6c 023e 4667 c6bd 46e0 0fbe
00000030: 8502 7f39 ec81 25be 7e3d 6cbc f4dc abbd
00000040: 70b6 073d 2b1f e5bd d3c8 2a3e 03c8 f2bd
00000050: cab0 c23d 2c4a ba3d 9707 2dbe b58e d3bd
00000060: c1e6 523c 3951 d23d 3859 15be 7f5d 633d
00000070: 1bf7 993d e3fa 843d 42a7 a9bd 9488 033e
00000080: efe9 d63d 04c3 0a3d 5a00 c63d c4e9 dbbc
00000090: e52a fc3c ad27 b03d dc0c f6bd 26c5 c1bd
000000a0: 8908 153e 0861 0a3c 066c aebd ff82 1e3e
000000b0: feac 1fbe 11de 253e e51c acbd 581f 073b
000000c0: 4f46 51bc fef5 8cbd da41 9e3d efaf 153e
000000d0: 7574 2c3e 392a a3bd 61d4 163e c68e 31bd
000000e0: b84f dc3d 53d1 033c 5a76 263e 51f5 b1bd
000000f0: 9a19 d93c 550a d5bd 052f 0b3e f744 e13d
00000100: 4d99 0b3e a1dd c53d edc1 de3c 2e1d a83a
00000110: fe9c a8bd 183c 0dbe 8836 dabd 5c5d a2bb
00000120: 1959 07be a0ae 1d3e e03b 233e d3fc 4bbd
00000130: 64a5 64bd 535a 623b 4cfb 5dbd dfe1 c03b
00000140: 924b 143e a6c5 56bd 311b aabd 8c5d 25bc
00000150: 1244 e53d 6afa f63d 6bab d33d 5f13 3a3c
00000160: 9004 2cbd 07db fa3d a476 f9bd 7ac3 20be
00000170: 8a0d e83d 6f68 e23d b7f4 74bd 328b bebd
00000180: 5169 e33c a6bd d8bd 78d7 b63d 2db7 d0bd
00000190: 5793 163e 043b f23d db9d 27bd 8177 b23c
000001a0: 2a46 d5bd 3481 193e a469 b63d 8802 cd3d
000001b0: 5992 cdbd 4793 12be ffe1 803d 7e7a 043e
000001c0: 3f91 24bd 56df 373d 0970 d6bc 0485 e0bd
000001d0: af16 7bbd be72 eebc a265 8ebd f32b a83d
000001e0: 7655 133e d401 2d3e a72e 3c3d f408 febd
000001f0: 3f23 78bd 7cb9 2d3e 397a a6bd dbc8 063e
00000200: 99ac c33c 8ae5 02be 9c4e 913c 2375 0dbe
00000210: 1be9 57bd 7546 253d a5aa 913c 0e63 f9bc
00000220: 74fe 073e 46b9 2abe 556c 173e f6dc 53bc
00000230: b6be 94bc 4a68 7e3d d88c 82bd aec1 b83d
00000240: 784f 673d 2ab3 943d 41ee 05bc 6f9c 9ebd
00000250: efb2 d3bd 47f9 2f3e d3fa 27bd 2dcb 90bd
00000260: db73 3cbc ef17 b93d 77a0 9e3a be91 2f3e
00000270: 551d ae3d 75d4 cfbd 1e5f 093e 41e0 ccbd
00000280: cc2e 5b3b 3465 e03d 6cd0 1ebe 7ebb beba
00000290: 8da6 393d 49d9 033e 1a0e 9abc ff24 1b3e
000002a0: ef7d 47bd 28b8 0f3e 3e18 d23d 1849 5a3d
000002b0: 35d7 133d c2c0 07be a343 c73d b104 013e
000002c0: 7c18 103e 2060 20be 007b 0abe ae77 08be
000002d0: dc5e 513d abc3 e53d 27c6 f4bd a41f a5bd
000002e0: 8e4b 80bd 0090 62bd 5dda 1ebe 8aa2 183e
000002f0: 32d9 193d 5b38 22be e144 debd bb66 22be
00000300: bfbf eb3d a651 e7bc 4738 ae3d 9357 39bd
00000310: deb2 adbc ff30 2d3d 6f2b a7bd 0dfc 29bd
00000320: ad5c c43d f79d 2cbe 65c0 8b3d b43e 133e
00000330: 56ae 96bd 80e2 743d c2af e4bd f85b 01be
00000340: 939c d3bd 1b51 bf3c 4c13 17bd 35e4 5a3d
00000350: 1412 0f3e 7b53 0c3a 13dc 0ebc 6a67 58bc
00000360: e032 fa3d ffa1 d53d 76e4 f03d 3d03 3e3d
00000370: 36b8 db3d c60f 0cbe c9e6 993d 52c0 68bd
00000380: 937e 353c 1ba6 a4bd 34b1 8bbd 75cb 053e
00000390: 9d88 6bbd 4fd8 23be 92f5 e63d 6420 06bd
000003a0: f796 b1bd c155 e5bd d36a c03d 5067 fe3c
000003b0: ace8 d23d c221 0bbe bae0 30be 50ac 20be
000003c0: e1d4 183e adec c13d f6a3 253d d824 f4bd
000003d0: d0d0 95bd eef7 c03c fc76 babc 125c fcbd
000003e0: 6a31 be3d c327 03be c4ea 283e 60c9 0f3e
000003f0: 12ef 1b3e e294 c33a 13a5 d93d 5f5b a9bd
0.1142645 0.047290042 -0.086876586 -0.0010343265 0.08851982 0.005115527 0.06496486 0.001270077
-0.109200835 0.12736747 -0.096876666 -0.14050397 0.00024319634 -0.16162843 -0.014418958 -0.08391753
0.03313297 -0.111875854 0.16678171 -0.118545555 0.09506376 0.090961784 -0.16897427 -0.103299536
0.012872399 0.10269398 -0.14584816 0.055509087 0.07517835 0.06493165 -0.08283855 0.12845069
0.10493838 0.033877388 0.09668036 -0.026844867 0.030782172 0.086013176 -0.120141715 -0.09461431
0.14554037 0.008445986 -0.085166976 0.15479659 -0.15593335 0.16197993 -0.08403949 0.0020618048
-0.0127731105 -0.06882857 0.07727404 0.14617895 0.168413 -0.07967038 0.14729454 -0.04334905
0.10757393 0.008045512 0.16256085 -0.086893685 0.026501466 -0.10402361 0.13592155 0.10999482
0.13632698 0.09661413 0.02719208 0.0012826079 -0.08233069 -0.13792455 -0.10654932 -0.004954977
-0.13217582 0.15398645 0.15940809 -0.04980166 -0.05582179 0.00345387 -0.054194734 0.005886301
0.14481953 -0.052434586 -0.083059676 -0.010093104 0.11194624 0.120594814 0.1033543 0.0113571575
-0.04199654 0.122488074 -0.12180832 -0.15699568 0.11330707 0.110550754 -0.05980369 -0.09303893
0.02776018 -0.105830476 0.08927816 -0.10191188 0.14704643 0.118276626 -0.040922027 0.0217855
-0.10413773 0.14990693 0.08906868 0.100102484 -0.10037679 -0.14313994 0.06293105 0.12937352
-0.04017758 0.044890724 -0.02617647 -0.10962871 -0.06130093 -0.029107448 -0.06952979 0.08211508
0.1438807 0.16895229 0.04594293 -0.124040514 -0.06058049 0.16965288 -0.08128781 0.13162558
0.023886012 -0.12782875 0.01773768 -0.13814215 -0.05271254 0.040350396 0.017781565 -0.03044274
0.1328066 -0.16672239 0.14787419 -0.012931099 -0.018157344 0.062111177 -0.0637452 0.090213165
0.05647227 0.07260735 -0.00817448 -0.07744681 -0.10336863 0.17184936 -0.04101069 -0.07070003
-0.0115022315 0.09037768 0.0012102266 0.1714544 0.085016884 -0.10147945 0.1341519 -0.100037105
0.003344464 0.10956803 -0.15509194 -0.0014551727 0.04532485 0.12875856 -0.018805552 0.15150832
-0.048704084 0.14035094 0.1025853 0.053292364 0.03609391 -0.13257125 0.097296976 0.12599446
0.1407184 -0.15661669 -0.13523483 -0.13326904 0.051115856 0.11218961 -0.11951857 -0.080626756
-0.06264411 -0.05531311 -0.15512986 0.14905754 0.03756065 -0.1584181 -0.10852981 -0.15859501
0.11511182 -0.028237175 0.08506828 -0.045249533 -0.021203455 0.042283054 -0.08162581 -0.04150014
0.09587989 -0.16857134 0.06823806 0.14379388 -0.07357471 0.05978632 -0.11166336 -0.1263274
-0.103325985 0.023354104 -0.036883637 0.05344029 0.1397174 0.0005353016 -0.008719462 -0.01320825
0.12216735 0.10431289 0.117623255 0.046389807 0.10728495 -0.13677892 0.07514722 -0.056824036
0.011077541 -0.080394946 -0.06820908 0.13065894 -0.05750333 -0.16000484 0.112773076 -0.032745734
-0.086713724 -0.11197997 0.09395375 0.031055123 0.10298285 -0.13587096 -0.17273226 -0.15690732
0.14924957 0.094689704 0.04043957 -0.1192109 -0.073152184 0.023555722 -0.022761814 -0.123222485
0.09286769 -0.12808137 0.16495806 0.14041662 0.15227917 0.001492169 0.106271885 -0.08269381

net.net.2.bias f4 [100]
00000000: 01bc 0d38 dc3c 6ab7 c272 5fb9 3434 39b8
00000010: cf5d 08b8 5b0b d136 35cd 3437 90fa 8db7
00000020: 6334 acb6 0746 f237 9543 edb7 2b4a fb38
00000030: 44a8 9437 921e c9b8 0000 0000 8f87 c2b5
00000040: d1c4 4d38 8728 8238 c77f c7b7 201c 83b7
00000050: bb3b 1638 f71b 9438 53e4 7637 b5aa 6938
00000060: 0000 0000 7204 cfb6 1ffa 2ab7 9fb0 83b6
00000070: b278 f337 c943 10b6 ea76 ca36 5b7a 12b8
00000080: 209a 44b8 4028 54b8 3795 ba37 d863 65b9
00000090: 50c7 3638 d0ff 0639 39ea 35b7 2acf e0b6
000000a0: e1e2 1d38 18d1 09b9 4274 e737 acd0 e5b6
000000b0: 18c5 8e38 8a85 43b7 38f9 42b8 9e5e 96b7
000000c0: be97 70b8 5d2e 3035 8f08 f6b8 125c 2db7
000000d0: 0000 0000 3495 77b5 7756 0938 452b 1638
000000e0: 8394 5c37 db07 0d37 4fff 92b8 5d20 ad37
000000f0: a6a5 bb37 12d0 77b8 dcb4 a7b8 5f1a 65b6
00000100: a1d2 d4b5 bb23 87b7 3d3c 25b8 1eb4 3136
00000110: 87db 3838 799f 9838 efc1 e638 78f6 3c38
00000120: cfed 7eb8 a27d 0cb8 e568 0fb7 0752 7c38
00000130: 0055 1db9 fb65 16b8 a90d fab7 6e54 d537
00000140: 5f17 2738 9677 8bb8 1592 97b8 b1c6 1338
00000150: 8ed4 68b7 341b d4b5 e232 81b8 016e ba38
00000160: b66b b538 1144 18b9 893b 5db7 969e e338
00000170: 98e3 54b6 4d72 77b8 439e a537 1b0b 8f37
00000180: c226 7736 45b7 8637 8ef6 beb8 1c58 a5b8
3.3792112e-05 -1.3961657e-05 -0.00021309688 -4.4156055e-05 -3.2512293e-05 6.2300073e-06 1.07766145e-05 -1.6925187e-05
-5.132098e-06 2.8881257e-05 -2.8284072e-05 0.000119824275 1.772133e-05 -9.590121e-05 0.0 -1.4493579e-06
4.905911e-05 6.206432e-05 -2.378215e-05 -1.5629514e-05 3.5818415e-05 7.062399e-05 1.47159035e-05 5.5710512e-05
0.0 -6.1695982e-06 -1.01910255e-05 -3.9246656e-06 2.902406e-05 -2.1497128e-06 6.0339125e-06 -3.4923065e-05
-4.687358e-05 -5.0582225e-05 2.2242411e-05 -0.00021876337 4.3577806e-05 0.00012874533 -1.0842975e-05 -6.6998373e-06
3.7643014e-05 -0.00013143232 2.7591483e-05 -6.8490244e-06 6.807799e-05 -1.1653998e-05 -4.6485307e-05 -1.7925453e-05
-5.736178e-05 6.5632577e-07 -0.00011731788 -1.033304e-05 0.0 -9.223179e-07 3.2743872e-05 3.5803085e-05
1.31476e-05 8.406084e-06 -7.0093774e-05 2.0638277e-05 2.2369273e-05 -5.908317e-05 -7.996868e-05 -3.413901e-06
-1.5856532e-06 -1.6109892e-05 -3.9395167e-05 2.6479897e-06 4.407347e-05 7.277629e-05 0.000110033776 4.5052235e-05
-6.0779796e-05 -3.3495606e-05 -8.547887e-06 6.0157876e-05 -0.00015004352 -3.5857764e-05 -2.9808683e-05 2.5430894e-05
3.983767e-05 -6.650311e-05 -7.227451e-05 3.5232577e-05 -1.3877767e-05 -1.5803148e-06 -6.160677e-05 8.889661e-05
8.650815e-05 -0.00014521206 -1.3186488e-05 0.000108537424 -3.1722939e-06 -5.899584e-05 1.974323e-05 1.70521e-05
3.6828428e-06 1.6059386e-05 -9.1058304e-05 -7.884225e-05

net.net.4.weight f4 [10, 100]
00000000: 007b f6bd 5390 40be 644f 343e 3803 4dbe
00000010: 170c bd3d bad4 7f3d 494c 19be 5ff5 87bc
00000020: f021 19be b609 a33d 7bf9 583e 8bd1 3bbe
00000030: b4a6 28bd d5e0 4bbe 978a 533e 6ce1 55be
00000040: 26fc 0b3e 604d 90bd 127a 2a3d 07d4 613e
00000050: fcc8 51bd 439e c73a 3566 b9bd 0b33 6e3d
00000060: 42d9 283c 5a78 dd3d 8fcd 03be d8f2 903d
00000070: f914 11bd 07c2 64bd 591e d9bb d490 a9bd
00000080: 9f88 95bd f925 183e 10c8 8e3c 1ae5 cebb
00000090: 4309 c7bd d393 d13d 71df a9bd 1391 15be
000000a0: 7f6b fcbc 01a4 5cbe b7cf 103e 9741 683e
000000b0: 191f 083e cb94 283a 04f5 41be d5c7 1c3d
000000c0: 0d9d 25be ff96 fabd 5248 4fbe b9f1 4e3e
000000d0: 1a4a e7bd d12a 8cbd 4453 2ebd 73a7 893c
000000e0: 61ac 24be 23bd 503e 4d41 48be ba61 0abe
000000f0: 5bbd 2d3c f6ec 9f3c d977 5f3d aa7f ebbd
00000100: c7cd 24be 6cd6 37be fa52 a43c 2c95 18be
00000110: 43d3 2d3e e3b3 413d be19 a0bd 4311 d93d
00000120: ce56 2cbe a949 243c 5c5e 29be efd5 0fbe
00000130: 9908 cbbd 760f 8ebd cd47 633a 07bd 5e3e
00000140: 22ae c3bd 37ad 3c3e d78a 24bd 0681 1abe
00000150: 98ca 3abc 34ba 6ebd 0b0a fabd e3fb 663e
00000160: 707d 463e 7cb1 fabc 3a56 873d c9af 453e
00000170: ad24 363e 528b 1dbe 07f9 3cbe f1b2 ab3d
00000180: 4282 41be f2c7 e2bd 5be4 6bbe 11f8 023e
00000190: f832 25be 6f6e f9bd a849 87bd 8340 0abe
000001a0: 21da ab3d cea2 283d 4cf6 203d 20e0 b13d
000001b0: ee67 01be 0ffe febd 55ef 4ebe 1f8d bd3d
000001c0: e1f7 423e 4d96 c4bd 3508 6f3e 1a25 d23d
000001d0: a204 6e3c f026 373c ae9e 74bd 3dce 483e
000001e0: a96f b83d ac05 c7bd cf69 033e a11d 643e
000001f0: 2d96 9dbd a5bd b63c 3f67 eebc f6ca 14be
00000200: df2c d43d 6b72 32be 8a13 123e 068a 27be
00000210: 9424 903d 2bc2 fa3d 5d70 6dbe 635c 183e
00000220: 2c4b 523d 49f8 0e3e c890 393e b4bf 073e
00000230: f7da d1bc b064 60be 7c53 54be 5d4a 973d
00000240: 2e8d 55be 9d3d 0c3e 4ca0 1a3e 8772 e9bd
00000250: 4bbb 383e 8eba 44be 99c9 e9bd 4110 dbbd
00000260: 0902 993d b76e 2a3e 8df6 dabd df33 a03d
00000270: 5bc4 dfbd 0c05 b43d d33e d2bc d16b b8bd
00000280: d271 04bd e682 393d 0e1f 533e 7f09 033e
00000290: c662 33be 27d8 a0bd 73a2 56be d86d 95bd
000002a0: baeb 553e 1e32 573e 94f7 4abd a825 2cbe
000002b0: ae3e 31be a74d febc cbcd 873d 07c4 4fbe
000002c0: f81f 8f3d e522 203e 426f ca3d b68b 2bbe
000002d0: 0b18 46be 057b 15be a78b 0fbe 1f30 68bd
000002e0: 4bd0 4a3c 0f85 8a3b eb4a 7f3d 1238 55be
000002f0: 049e bc3b 2218 4d3e dd60 25be 5c0e d53d
00000300: c94d ac3d 6407 833d 69ff 9ebd bfd4 0c3d
00000310: f884 5dbd a2d8 bbbc 5446 0e3d dc74 b5bd
00000320: baf6 63be 9ead 343e a311 2bbe 9ebc b33b
00000330: 828e 02be 43ae 9bbc ae91 033d f837 64bd
00000340: a7ca 40be e6bc 193e 67c9 56be bf88 6ebd
00000350: b577 49be 6a9f 983d ce52 2cbe 555d 593d
00000360: 7ed0 a83d f70c 753d a802 053e fae9 613e
00000370: ceb6 dd3d c8fb 90ba ec41 b6bc 882b 2cbd
00000380: 9cd4 13be 4666 24be 46bc 7e3d 4f92 47be
00000390: 33bf a3bd e335 e53d fb05 543d 2290 193e
000003a0: 8ca4 59be 60eb df3c f0a8 80bd 51f0 3cbd
000003b0: 5801 943d 2dae 4f3e ad6c d4bd 5f75 adba
000003c0: a643 423e 1510 34be 1326 76bd df7d c2bd
000003d0: 2c63 b1bd 8768 2bbe 6109 b53d 1077 9fbd
000003e0: 571d 1d3d 7ab3 c1bb e005 113e 995a 8e3d
000003f0: 1e44 09bd bf0d b73d 0f39 083e a751 89bc
-0.12035179 -0.18805055 0.1760841 -0.20020759 0.092308216 0.06245873 -0.14970507 -0.016596494
-0.14954352 0.079608366 0.21188919 -0.18341653 -0.041174605 -0.19909985 0.20658337 -0.20886773
0.13670406 -0.07046008 0.04162032 0.22053538 -0.051217064 0.0015229661 -0.090526976 0.058154147
0.010305705 0.10813971 -0.12871383 0.07077569 -0.03542039 -0.0558491 -0.006625932 -0.08279577
-0.07301449 0.14858235 0.017429382 -0.006313932 -0.097185634 0.10233273 -0.08294571 -0.14606123
-0.030812977 -0.21546938 0.14141737 0.2268127 0.13293113 0.0006430863 -0.18941122 0.038276512
-0.16173191 -0.122358315 -0.20242432 0.20209397 -0.112934306 -0.06844104 -0.042559877 0.016803479
-0.16081382 0.2038465 -0.1955616 -0.13513842 0.010604228 0.019522171 0.054557655 -0.11498959
-0.16094123 -0.17952889 0.020059098 -0.14900655 0.16975121 0.047290694 -0.0781741 0.105989955
-0.16829988 0.010027328 -0.16539901 -0.14046453 -0.09913749 -0.06936543 0.0008670062 0.21751796
-0.095546976 0.18425451 -0.04017147 -0.15088281 -0.011400841 -0.058283046 -0.12208947 0.22557025
0.19383788 -0.03060221 0.06608243 0.19305338 0.17787428 -0.15385178 -0.18454371 0.0838374
-0.18897346 -0.11073293 -0.2303633 0.12789942 -0.16132724 -0.12179267 -0.06605846 -0.13501172
0.08391214 0.041170888 0.039297387 0.086853266 -0.12637302 -0.124508016 -0.20208485 0.09255432
0.19039871 -0.0959898 0.23342974 0.10260983 0.014527472 0.011178717 -0.05972164 0.19609924
0.090056725 -0.09717879 0.12833332 0.22276928 -0.076946594 0.022307226 -0.029101966 -0.14530548
0.10360121 -0.1742646 0.14265266 -0.16361246 0.07038227 0.12244066 -0.23187394 0.14878993
0.05134122 0.13961901 0.18121636 0.13256723 -0.025617106 -0.21913409 -0.20734972 0.073872305
-0.20854637 0.13695379 0.15100211 -0.113987975 0.18040197 -0.1921179 -0.11415405 -0.106964596
0.07471091 0.16643797 -0.10691557 0.078223936 -0.10926124 0.08790025 -0.025664723 -0.09004939
-0.03233511 0.04529085 0.20617315 0.12796591 -0.17518148 -0.07853728 -0.20960407 -0.07296342
0.20890704 0.21015212 -0.049552515 -0.1681124 -0.17309067 -0.031042887 0.06631049 -0.20289622
0.069885194 0.15638311 0.09884502 -0.16752514 -0.19345109 -0.1459771 -0.14018117 -0.056686517
0.0123787625 0.0042272876 0.062327307 -0.2082217 0.0057561416 0.20028737 -0.16150232 0.104031295
0.08413274 0.06397894 -0.07763559 0.034382578 -0.054081887 -0.022930447 0.03473504 -0.0886018
-0.22262087 0.17644355 -0.16705947 0.0054851314 -0.12749675 -0.019003993 0.032121353 -0.05571744
-0.18827306 0.15013465 -0.20975266 -0.05823588 -0.19674571 0.07452281 -0.16828462 0.053067524
0.08242892 0.059826817 0.12989295 0.22061911 0.10825883 -0.0011061365 -0.02224823 -0.042033702
-0.14436573 -0.16054639 0.06219127 -0.19489406 -0.07995453 0.11191919 0.051763516 0.14996389
-0.21254176 0.027333915 -0.06282222 -0.04612762 0.07226819 0.20281287 -0.10372291 -0.0013233832
0.18971118 -0.1758426 -0.060094904 -0.09496664 -0.08661494 -0.16739093 0.088396795 -0.07786381
0.03835806 -0.005911288 0.14162397 0.06950874 -0.033512227 0.08938169 0.13303016 -0.016762568

net.net.4.bias f4 [10]
00000000: fdb2 3339 7963 8bb6 d47d c838 0f1e 0d39
00000010: 11c4 143a 4fca 43b9 c724 4db9 0358 8ab9
00000020: b4aa 17b9 4a7b 36b9
0.00017137449 -4.154103e-06 9.5601805e-05 0.00013458006 0.0005674968 -0.00018672015 -0.00019564024 -0.00026386985
-0.00014464074 -0.00017402801
